…
\paperw11900\paperh16840\margl1440\margr1440\vieww10800\viewh8400\viewkind0
\pard\tx560\tx1120\tx1680\tx2240\tx2800\tx3360\tx3920\tx4480\tx5040\tx5600\tx6160\tx6720\pardirnatural\partightenfactor0

\f0\fs22 \cf2 \cb3 \CocoaLigature0 (tensorflow_p36) [ec2-user@ip-172-31-12-250 project2]$ sudo python3 smart_pig1.py \
Using TensorFlow backend.\
Found 3119 images belonging to 5 classes.\
Found 550 images belonging to 5 classes.\
_________________________________________________________________\
Layer (type)                 Output Shape              Param #   \
=================================================================\
conv2d_1 (Conv2D)            (None, 62, 62, 64)        1792      \
_________________________________________________________________\
activation_1 (Activation)    (None, 62, 62, 64)        0         \
_________________________________________________________________\
max_pooling2d_1 (MaxPooling2 (None, 31, 31, 64)        0         \
_________________________________________________________________\
conv2d_2 (Conv2D)            (None, 29, 29, 32)        18464     \
_________________________________________________________________\
activation_2 (Activation)    (None, 29, 29, 32)        0         \
_________________________________________________________________\
max_pooling2d_2 (MaxPooling2 (None, 14, 14, 32)        0         \
_________________________________________________________________\
dropout_1 (Dropout)          (None, 14, 14, 32)        0         \
_________________________________________________________________\
conv2d_3 (Conv2D)            (None, 12, 12, 64)        18496     \
_________________________________________________________________\
activation_3 (Activation)    (None, 12, 12, 64)        0         \
_________________________________________________________________\
max_pooling2d_3 (MaxPooling2 (None, 6, 6, 64)          0         \
_________________________________________________________________\
flatten_1 (Flatten)          (None, 2304)              0         \
_________________________________________________________________\
dense_1 (Dense)              (None, 128)               295040    \
_________________________________________________________________\
activation_4 (Activation)    (None, 128)               0         \
_________________________________________________________________\
dropout_2 (Dropout)          (None, 128)               0         \
_________________________________________________________________\
dense_2 (Dense)              (None, 5)                 645       \
_________________________________________________________________\
activation_5 (Activation)    (None, 5)                 0         \
=================================================================\
Total params: 334,437\
Trainable params: 334,437\
Non-trainable params: 0\
_________________________________________________________________\
None\
Epoch 1/50\
2017-11-22 12:22:06.667635: I tensorflow/core/platform/cpu_feature_guard.cc:137] Your CPU supports instructions that this TensorFlow binary was not compiled to use: SSE4.1 SSE4.2 AVX AVX2 FMA\
…
